…
    "    Dense(64, activation=\"relu\"),\n",
    "    Dropout(0.5),\n",
    "    Dense(10, activation=\"softmax\")\n",
    "])"
   ]
  },
  {
   "cell_type": "code",
   "execution_count": 131,
   "id": "herbal-honor",
   "metadata": {},
   "outputs": [
    {
     "name": "stdout",
     "output_type": "stream",
     "text": [
      "Model: \"sequential_1\"\n",
      "_________________________________________________________________\n",
      "Layer (type)                 Output Shape              Param #   \n",
      "=================================================================\n",
      "conv2d_5 (Conv2D)            (None, 28, 28, 64)        3200      \n",
      "_________________________________________________________________\n",
      "max_pooling2d_3 (MaxPooling2 (None, 14, 14, 64)        0         \n",
      "_________________________________________________________________\n",
      "conv2d_6 (Conv2D)            (None, 14, 14, 128)       73856     \n",
      "_________________________________________________________________\n",
      "conv2d_7 (Conv2D)            (None, 14, 14, 128)       147584    \n",
      "_________________________________________________________________\n",
      "max_pooling2d_4 (MaxPooling2 (None, 7, 7, 128)         0         \n",
      "_________________________________________________________________\n",
      "conv2d_8 (Conv2D)            (None, 7, 7, 256)         295168    \n",
      "_________________________________________________________________\n",
      "max_pooling2d_5 (MaxPooling2 (None, 3, 3, 256)         0         \n",
      "_________________________________________________________________\n",
      "flatten_1 (Flatten)          (None, 2304)              0         \n",
      "_________________________________________________________________\n",
      "dense_2 (Dense)              (None, 64)                147520    \n",
      "_________________________________________________________________\n",
      "dropout_1 (Dropout)          (None, 64)                0         \n",
      "_________________________________________________________________\n",
      "dense_3 (Dense)              (None, 10)                650       \n",
      "=================================================================\n",
      "Total params: 667,978\n",
      "Trainable params: 667,978\n",
      "Non-trainable params: 0\n",
      "_________________________________________________________________\n"
     ]
    }
   ],
   "source": [
    "model.summary()"
   ]
  },
  {
   "cell_type": "code",
   "execution_count": 132,
   "id": "radio-cooperative",
…
